#################### STEP: 0
---------- [__init__](0).positional args
@(/0) DINO(
  (data_preprocessor): DetDataPreprocessor()
  (backbone): ResNet(
    (conv1): Conv2d(3, 64, kernel_size=(7, 7), stride=(2, 2), padding=(3, 3), bias=False)
    (bn1): BatchNorm2d(64, eps=1e-05, momentum=0.1, affine=True, track_running_stats=True)
    (relu): ReLU(inplace=True)
    (maxpool): MaxPool2d(kernel_size=3, stride=2, padding=1, dilation=1, ceil_mode=False)
    (layer1): ResLayer(
      (0): Bottleneck(
        (conv1): Conv2d(64, 64, kernel_size=(1, 1), stride=(1, 1), bias=False)
        (bn1): BatchNorm2d(64, eps=1e-05, momentum=0.1, affine=True, track_running_stats=True)
        (conv2): Conv2d(64, 64, kernel_size=(3, 3), stride=(1, 1), padding=(1, 1), bias=False)
        (bn2): BatchNorm2d(64, eps=1e-05, momentum=0.1, affine=True, track_running_stats=True)
        (conv3): Conv2d(64, 256, kernel_size=(1, 1), stride=(1, 1), bias=False)
        (bn3): BatchNorm2d(256, eps=1e-05, momentum=0.1, affine=True, track_running_stats=True)
        (relu): ReLU(inplace=True)
        (downsample): Sequential(
          (0): Conv2d(64, 256, kernel_size=(1, 1), stride=(1, 1), bias=False)
          (1): BatchNorm2d(256, eps=1e-05, momentum=0.1, affine=True, track_running_stats=True)
        )
      )
      (1): Bottleneck(
        (conv1): Conv2d(256, 64, kernel_size=(1, 1), stride=(1, 1), bias=False)
        (bn1): BatchNorm2d(64, eps=1e-05, momentum=0.1, affine=True, track_running_stats=True)
        (conv2): Conv2d(64, 64, kernel_size=(3, 3), stride=(1, 1), padding=(1, 1), bias=False)
        (bn2): BatchNorm2d(64, eps=1e-05, momentum=0.1, affine=True, track_running_stats=True)
        (conv3): Conv2d(64, 256, kernel_size=(1, 1), stride=(1, 1), bias=False)
        (bn3): BatchNorm2d(256, eps=1e-05, momentum=0.1, affine=True, track_running_stats=True)
        (relu): ReLU(inplace=True)
      )
      (2): Bottleneck(
        (conv1): Conv2d(256, 64, kernel_size=(1, 1), stride=(1, 1), bias=False)
        (bn1): BatchNorm2d(64, eps=1e-05, momentum=0.1, affine=True, track_running_stats=True)
        (conv2): Conv2d(64, 64, kernel_size=(3, 3), stride=(1, 1), padding=(1, 1), bias=False)
        (bn2): BatchNorm2d(64, eps=1e-05, momentum=0.1, affine=True, track_running_stats=True)
        (conv3): Conv2d(64, 256, kernel_size=(1, 1), stride=(1, 1), bias=False)
        (bn3): BatchNorm2d(256, eps=1e-05, momentum=0.1, affine=True, track_running_stats=True)
        (relu): ReLU(inplace=True)
      )
    )
    (layer2): ResLayer(
      (0): Bottleneck(
        (conv1): Conv2d(256, 128, kernel_size=(1, 1), stride=(1, 1), bias=False)
        (bn1): BatchNorm2d(128, eps=1e-05, momentum=0.1, affine=True, track_running_stats=True)
        (conv2): Conv2d(128, 128, kernel_size=(3, 3), stride=(2, 2), padding=(1, 1), bias=False)
        (bn2): BatchNorm2d(128, eps=1e-05, momentum=0.1, affine=True, track_running_stats=True)
        (conv3): Conv2d(128, 512, kernel_size=(1, 1), stride=(1, 1), bias=False)
        (bn3): BatchNorm2d(512, eps=1e-05, momentum=0.1, affine=True, track_running_stats=True)
        (relu): ReLU(inplace=True)
        (downsample): Sequential(
          (0): Conv2d(256, 512, kernel_size=(1, 1), stride=(2, 2), bias=False)
          (1): BatchNorm2d(512, eps=1e-05, momentum=0.1, affine=True, track_running_stats=True)
        )
      )
      (1): Bottleneck(
        (conv1): Conv2d(512, 128, kernel_size=(1, 1), stride=(1, 1), bias=False)
        (bn1): BatchNorm2d(128, eps=1e-05, momentum=0.1, affine=True, track_running_stats=True)
        (conv2): Conv2d(128, 128, kernel_size=(3, 3), stride=(1, 1), padding=(1, 1), bias=False)
        (bn2): BatchNorm2d(128, eps=1e-05, momentum=0.1, affine=True, track_running_stats=True)
        (conv3): Conv2d(128, 512, kernel_size=(1, 1), stride=(1, 1), bias=False)
        (bn3): BatchNorm2d(512, eps=1e-05, momentum=0.1, affine=True, track_running_stats=True)
        (relu): ReLU(inplace=True)
      )
      (2): Bottleneck(
        (conv1): Conv2d(512, 128, kernel_size=(1, 1), stride=(1, 1), bias=False)
        (bn1): BatchNorm2d(128, eps=1e-05, momentum=0.1, affine=True, track_running_stats=True)
        (conv2): Conv2d(128, 128, kernel_size=(3, 3), stride=(1, 1), padding=(1, 1), bias=False)
        (bn2): BatchNorm2d(128, eps=1e-05, momentum=0.1, affine=True, track_running_stats=True)
        (conv3): Conv2d(128, 512, kernel_size=(1, 1), stride=(1, 1), bias=False)
        (bn3): BatchNorm2d(512, eps=1e-05, momentum=0.1, affine=True, track_running_stats=True)
        (relu): ReLU(inplace=True)
      )
      (3): Bottleneck(
        (conv1): Conv2d(512, 128, kernel_size=(1, 1), stride=(1, 1), bias=False)
        (bn1): BatchNorm2d(128, eps=1e-05, momentum=0.1, affine=True, track_running_stats=True)
        (conv2): Conv2d(128, 128, kernel_size=(3, 3), stride=(1, 1), padding=(1, 1), bias=False)
        (bn2): BatchNorm2d(128, eps=1e-05, momentum=0.1, affine=True, track_running_stats=True)
        (conv3): Conv2d(128, 512, kernel_size=(1, 1), stride=(1, 1), bias=False)
        (bn3): BatchNorm2d(512, eps=1e-05, momentum=0.1, affine=True, track_running_stats=True)
        (relu): ReLU(inplace=True)
      )
    )
    (layer3): ResLayer(
      (0): Bottleneck(
        (conv1): Conv2d(512, 256, kernel_size=(1, 1), stride=(1, 1), bias=False)
        (bn1): BatchNorm2d(256, eps=1e-05, momentum=0.1, affine=True, track_running_stats=True)
        (conv2): Conv2d(256, 256, kernel_size=(3, 3), stride=(2, 2), padding=(1, 1), bias=False)
        (bn2): BatchNorm2d(256, eps=1e-05, momentum=0.1, affine=True, track_running_stats=True)
        (conv3): Conv2d(256, 1024, kernel_size=(1, 1), stride=(1, 1), bias=False)
        (bn3): BatchNorm2d(1024, eps=1e-05, momentum=0.1, affine=True, track_running_stats=True)
        (relu): ReLU(inplace=True)
        (downsample): Sequential(
          (0): Conv2d(512, 1024, kernel_size=(1, 1), stride=(2, 2), bias=False)
          (1): BatchNorm2d(1024, eps=1e-05, momentum=0.1, affine=True, track_running_stats=True)
        )
      )
      (1): Bottleneck(
        (conv1): Conv2d(1024, 256, kernel_size=(1, 1), stride=(1, 1), bias=False)
        (bn1): BatchNorm2d(256, eps=1e-05, momentum=0.1, affine=True, track_running_stats=True)
        (conv2): Conv2d(256, 256, kernel_size=(3, 3), stride=(1, 1), padding=(1, 1), bias=False)
        (bn2): BatchNorm2d(256, eps=1e-05, momentum=0.1, affine=True, track_running_stats=True)
        (conv3): Conv2d(256, 1024, kernel_size=(1, 1), stride=(1, 1), bias=False)
        (bn3): BatchNorm2d(1024, eps=1e-05, momentum=0.1, affine=True, track_running_stats=True)
        (relu): ReLU(inplace=True)
      )
      (2): Bottleneck(
        (conv1): Conv2d(1024, 256, kernel_size=(1, 1), stride=(1, 1), bias=False)
        (bn1): BatchNorm2d(256, eps=1e-05, momentum=0.1, affine=True, track_running_stats=True)
        (conv2): Conv2d(256, 256, kernel_size=(3, 3), stride=(1, 1), padding=(1, 1), bias=False)
        (bn2): BatchNorm2d(256, eps=1e-05, momentum=0.1, affine=True, track_running_stats=True)
        (conv3): Conv2d(256, 1024, kernel_size=(1, 1), stride=(1, 1), bias=False)
        (bn3): BatchNorm2d(1024, eps=1e-05, momentum=0.1, affine=True, track_running_stats=True)
        (relu): ReLU(inplace=True)
      )
      (3): Bottleneck(
        (conv1): Conv2d(1024, 256, kernel_size=(1, 1), stride=(1, 1), bias=False)
        (bn1): BatchNorm2d(256, eps=1e-05, momentum=0.1, affine=True, track_running_stats=True)
        (conv2): Conv2d(256, 256, kernel_size=(3, 3), stride=(1, 1), padding=(1, 1), bias=False)
        (bn2): BatchNorm2d(256, eps=1e-05, momentum=0.1, affine=True, track_running_stats=True)
        (conv3): Conv2d(256, 1024, kernel_size=(1, 1), stride=(1, 1), bias=False)
        (bn3): BatchNorm2d(1024, eps=1e-05, momentum=0.1, affine=True, track_running_stats=True)
        (relu): ReLU(inplace=True)
      )
      (4): Bottleneck(
        (conv1): Conv2d(1024, 256, kernel_size=(1, 1), stride=(1, 1), bias=False)
        (bn1): BatchNorm2d(256, eps=1e-05, momentum=0.1, affine=True, track_running_stats=True)
        (conv2): Conv2d(256, 256, kernel_size=(3, 3), stride=(1, 1), padding=(1, 1), bias=False)
        (bn2): BatchNorm2d(256, eps=1e-05, momentum=0.1, affine=True, track_running_stats=True)
        (conv3): Conv2d(256, 1024, kernel_size=(1, 1), stride=(1, 1), bias=False)
        (bn3): BatchNorm2d(1024, eps=1e-05, momentum=0.1, affine=True, track_running_stats=True)
        (relu): ReLU(inplace=True)
      )
      (5): Bottleneck(
        (conv1): Conv2d(1024, 256, kernel_size=(1, 1), stride=(1, 1), bias=False)
        (bn1): BatchNorm2d(256, eps=1e-05, momentum=0.1, affine=True, track_running_stats=True)
        (conv2): Conv2d(256, 256, kernel_size=(3, 3), stride=(1, 1), padding=(1, 1), bias=False)
        (bn2): BatchNorm2d(256, eps=1e-05, momentum=0.1, affine=True, track_running_stats=True)
        (conv3): Conv2d(256, 1024, kernel_size=(1, 1), stride=(1, 1), bias=False)
        (bn3): BatchNorm2d(1024, eps=1e-05, momentum=0.1, affine=True, track_running_stats=True)
        (relu): ReLU(inplace=True)
      )
    )
    (layer4): ResLayer(
      (0): Bottleneck(
        (conv1): Conv2d(1024, 512, kernel_size=(1, 1), stride=(1, 1), bias=False)
        (bn1): BatchNorm2d(512, eps=1e-05, momentum=0.1, affine=True, track_running_stats=True)
        (conv2): Conv2d(512, 512, kernel_size=(3, 3), stride=(2, 2), padding=(1, 1), bias=False)
        (bn2): BatchNorm2d(512, eps=1e-05, momentum=0.1, affine=True, track_running_stats=True)
        (conv3): Conv2d(512, 2048, kernel_size=(1, 1), stride=(1, 1), bias=False)
        (bn3): BatchNorm2d(2048, eps=1e-05, momentum=0.1, affine=True, track_running_stats=True)
        (relu): ReLU(inplace=True)
        (downsample): Sequential(
          (0): Conv2d(1024, 2048, kernel_size=(1, 1), stride=(2, 2), bias=False)
          (1): BatchNorm2d(2048, eps=1e-05, momentum=0.1, affine=True, track_running_stats=True)
        )
      )
      (1): Bottleneck(
        (conv1): Conv2d(2048, 512, kernel_size=(1, 1), stride=(1, 1), bias=False)
        (bn1): BatchNorm2d(512, eps=1e-05, momentum=0.1, affine=True, track_running_stats=True)
        (conv2): Conv2d(512, 512, kernel_size=(3, 3), stride=(1, 1), padding=(1, 1), bias=False)
        (bn2): BatchNorm2d(512, eps=1e-05, momentum=0.1, affine=True, track_running_stats=True)
        (conv3): Conv2d(512, 2048, kernel_size=(1, 1), stride=(1, 1), bias=False)
        (bn3): BatchNorm2d(2048, eps=1e-05, momentum=0.1, affine=True, track_running_stats=True)
        (relu): ReLU(inplace=True)
      )
      (2): Bottleneck(
        (conv1): Conv2d(2048, 512, kernel_size=(1, 1), stride=(1, 1), bias=False)
        (bn1): BatchNorm2d(512, eps=1e-05, momentum=0.1, affine=True, track_running_stats=True)
        (conv2): Conv2d(512, 512, kernel_size=(3, 3), stride=(1, 1), padding=(1, 1), bias=False)
        (bn2): BatchNorm2d(512, eps=1e-05, momentum=0.1, affine=True, track_running_stats=True)
        (conv3): Conv2d(512, 2048, kernel_size=(1, 1), stride=(1, 1), bias=False)
        (bn3): BatchNorm2d(2048, eps=1e-05, momentum=0.1, affine=True, track_running_stats=True)
        (relu): ReLU(inplace=True)
      )
    )
  )
  init_cfg={'type': 'Pretrained', 'checkpoint': 'torchvision://resnet50'}
  (neck): ChannelMapper(
    (convs): ModuleList(
      (0): ConvModule(
        (conv): Conv2d(512, 256, kernel_size=(1, 1), stride=(1, 1), bias=False)
        (gn): GroupNorm(32, 256, eps=1e-05, affine=True)
      )
      (1): ConvModule(
        (conv): Conv2d(1024, 256, kernel_size=(1, 1), stride=(1, 1), bias=False)
        (gn): GroupNorm(32, 256, eps=1e-05, affine=True)
      )
      (2): ConvModule(
        (conv): Conv2d(2048, 256, kernel_size=(1, 1), stride=(1, 1), bias=False)
        (gn): GroupNorm(32, 256, eps=1e-05, affine=True)
      )
    )
    (extra_convs): ModuleList(
      (0): ConvModule(
        (conv): Conv2d(2048, 256, kernel_size=(3, 3), stride=(2, 2), padding=(1, 1), bias=False)
        (gn): GroupNorm(32, 256, eps=1e-05, affine=True)
      )
    )
  )
  init_cfg={'type': 'Xavier', 'layer': 'Conv2d', 'distribution': 'uniform'}
  (bbox_head): DINOHead(
    (loss_cls): FocalLoss()
    (loss_bbox): L1Loss()
    (loss_iou): GIoULoss()
    (cls_branches): ModuleList(
      (0): Linear(in_features=256, out_features=10, bias=True)
      (1): Linear(in_features=256, out_features=10, bias=True)
      (2): Linear(in_features=256, out_features=10, bias=True)
      (3): Linear(in_features=256, out_features=10, bias=True)
      (4): Linear(in_features=256, out_features=10, bias=True)
      (5): Linear(in_features=256, out_features=10, bias=True)
      (6): Linear(in_features=256, out_features=10, bias=True)
    )
    (reg_branches): ModuleList(
      (0): Sequential(
        (0): Linear(in_features=256, out_features=256, bias=True)
        (1): ReLU()
        (2): Linear(in_features=256, out_features=256, bias=True)
        (3): ReLU()
        (4): Linear(in_features=256, out_features=4, bias=True)
      )
      (1): Sequential(
        (0): Linear(in_features=256, out_features=256, bias=True)
        (1): ReLU()
        (2): Linear(in_features=256, out_features=256, bias=True)
        (3): ReLU()
        (4): Linear(in_features=256, out_features=4, bias=True)
      )
      (2): Sequential(
        (0): Linear(in_features=256, out_features=256, bias=True)
        (1): ReLU()
        (2): Linear(in_features=256, out_features=256, bias=True)
        (3): ReLU()
        (4): Linear(in_features=256, out_features=4, bias=True)
      )
      (3): Sequential(
        (0): Linear(in_features=256, out_features=256, bias=True)
        (1): ReLU()
        (2): Linear(in_features=256, out_features=256, bias=True)
        (3): ReLU()
        (4): Linear(in_features=256, out_features=4, bias=True)
      )
      (4): Sequential(
        (0): Linear(in_features=256, out_features=256, bias=True)
        (1): ReLU()
        (2): Linear(in_features=256, out_features=256, bias=True)
        (3): ReLU()
        (4): Linear(in_features=256, out_features=4, bias=True)
      )
      (5): Sequential(
        (0): Linear(in_features=256, out_features=256, bias=True)
        (1): ReLU()
        (2): Linear(in_features=256, out_features=256, bias=True)
        (3): ReLU()
        (4): Linear(in_features=256, out_features=4, bias=True)
      )
      (6): Sequential(
        (0): Linear(in_features=256, out_features=256, bias=True)
        (1): ReLU()
        (2): Linear(in_features=256, out_features=256, bias=True)
        (3): ReLU()
        (4): Linear(in_features=256, out_features=4, bias=True)
      )
    )
  )
  (positional_encoding): SinePositionalEncoding(num_feats=128, temperature=20, normalize=True, scale=6.283185307179586, eps=1e-06)
  (encoder): DeformableDetrTransformerEncoder(
    (layers): ModuleList(
      (0): DeformableDetrTransformerEncoderLayer(
        (self_attn): MultiScaleDeformableAttention(
          (dropout): Dropout(p=0.0, inplace=False)
          (sampling_offsets): Linear(in_features=256, out_features=256, bias=True)
          (attention_weights): Linear(in_features=256, out_features=128, bias=True)
          (value_proj): Linear(in_features=256, out_features=256, bias=True)
          (output_proj): Linear(in_features=256, out_features=256, bias=True)
        )
        (ffn): FFN(
          (layers): Sequential(
            (0): Sequential(
              (0): Linear(in_features=256, out_features=2048, bias=True)
              (1): ReLU(inplace=True)
              (2): Dropout(p=0.0, inplace=False)
            )
            (1): Linear(in_features=2048, out_features=256, bias=True)
            (2): Dropout(p=0.0, inplace=False)
          )
          (dropout_layer): Identity()
          (gamma2): Identity()
        )
        (norms): ModuleList(
          (0): LayerNorm((256,), eps=1e-05, elementwise_affine=True)
          (1): LayerNorm((256,), eps=1e-05, elementwise_affine=True)
        )
      )
      (1): DeformableDetrTransformerEncoderLayer(
        (self_attn): MultiScaleDeformableAttention(
          (dropout): Dropout(p=0.0, inplace=False)
          (sampling_offsets): Linear(in_features=256, out_features=256, bias=True)
          (attention_weights): Linear(in_features=256, out_features=128, bias=True)
          (value_proj): Linear(in_features=256, out_features=256, bias=True)
          (output_proj): Linear(in_features=256, out_features=256, bias=True)
        )
        (ffn): FFN(
          (layers): Sequential(
            (0): Sequential(
              (0): Linear(in_features=256, out_features=2048, bias=True)
              (1): ReLU(inplace=True)
              (2): Dropout(p=0.0, inplace=False)
            )
            (1): Linear(in_features=2048, out_features=256, bias=True)
            (2): Dropout(p=0.0, inplace=False)
          )
          (dropout_layer): Identity()
          (gamma2): Identity()
        )
        (norms): ModuleList(
          (0): LayerNorm((256,), eps=1e-05, elementwise_affine=True)
          (1): LayerNorm((256,), eps=1e-05, elementwise_affine=True)
        )
      )
      (2): DeformableDetrTransformerEncoderLayer(
        (self_attn): MultiScaleDeformableAttention(
          (dropout): Dropout(p=0.0, inplace=False)
          (sampling_offsets): Linear(in_features=256, out_features=256, bias=True)
          (attention_weights): Linear(in_features=256, out_features=128, bias=True)
          (value_proj): Linear(in_features=256, out_features=256, bias=True)
          (output_proj): Linear(in_features=256, out_features=256, bias=True)
        )
        (ffn): FFN(
          (layers): Sequential(
            (0): Sequential(
              (0): Linear(in_features=256, out_features=2048, bias=True)
              (1): ReLU(inplace=True)
              (2): Dropout(p=0.0, inplace=False)
            )
            (1): Linear(in_features=2048, out_features=256, bias=True)
            (2): Dropout(p=0.0, inplace=False)
          )
          (dropout_layer): Identity()
          (gamma2): Identity()
        )
        (norms): ModuleList(
          (0): LayerNorm((256,), eps=1e-05, elementwise_affine=True)
          (1): LayerNorm((256,), eps=1e-05, elementwise_affine=True)
        )
      )
      (3): DeformableDetrTransformerEncoderLayer(
        (self_attn): MultiScaleDeformableAttention(
          (dropout): Dropout(p=0.0, inplace=False)
          (sampling_offsets): Linear(in_features=256, out_features=256, bias=True)
          (attention_weights): Linear(in_features=256, out_features=128, bias=True)
          (value_proj): Linear(in_features=256, out_features=256, bias=True)
          (output_proj): Linear(in_features=256, out_features=256, bias=True)
        )
        (ffn): FFN(
          (layers): Sequential(
            (0): Sequential(
              (0): Linear(in_features=256, out_features=2048, bias=True)
              (1): ReLU(inplace=True)
              (2): Dropout(p=0.0, inplace=False)
            )
            (1): Linear(in_features=2048, out_features=256, bias=True)
            (2): Dropout(p=0.0, inplace=False)
          )
          (dropout_layer): Identity()
          (gamma2): Identity()
        )
        (norms): ModuleList(
          (0): LayerNorm((256,), eps=1e-05, elementwise_affine=True)
          (1): LayerNorm((256,), eps=1e-05, elementwise_affine=True)
        )
      )
      (4): DeformableDetrTransformerEncoderLayer(
        (self_attn): MultiScaleDeformableAttention(
          (dropout): Dropout(p=0.0, inplace=False)
          (sampling_offsets): Linear(in_features=256, out_features=256, bias=True)
          (attention_weights): Linear(in_features=256, out_features=128, bias=True)
          (value_proj): Linear(in_features=256, out_features=256, bias=True)
          (output_proj): Linear(in_features=256, out_features=256, bias=True)
        )
        (ffn): FFN(
          (layers): Sequential(
            (0): Sequential(
              (0): Linear(in_features=256, out_features=2048, bias=True)
              (1): ReLU(inplace=True)
              (2): Dropout(p=0.0, inplace=False)
            )
            (1): Linear(in_features=2048, out_features=256, bias=True)
            (2): Dropout(p=0.0, inplace=False)
          )
          (dropout_layer): Identity()
          (gamma2): Identity()
        )
        (norms): ModuleList(
          (0): LayerNorm((256,), eps=1e-05, elementwise_affine=True)
          (1): LayerNorm((256,), eps=1e-05, elementwise_affine=True)
        )
      )
      (5): DeformableDetrTransformerEncoderLayer(
        (self_attn): MultiScaleDeformableAttention(
          (dropout): Dropout(p=0.0, inplace=False)
          (sampling_offsets): Linear(in_features=256, out_features=256, bias=True)
          (attention_weights): Linear(in_features=256, out_features=128, bias=True)
          (value_proj): Linear(in_features=256, out_features=256, bias=True)
          (output_proj): Linear(in_features=256, out_features=256, bias=True)
        )
        (ffn): FFN(
          (layers): Sequential(
            (0): Sequential(
              (0): Linear(in_features=256, out_features=2048, bias=True)
              (1): ReLU(inplace=True)
              (2): Dropout(p=0.0, inplace=False)
            )
            (1): Linear(in_features=2048, out_features=256, bias=True)
            (2): Dropout(p=0.0, inplace=False)
          )
          (dropout_layer): Identity()
          (gamma2): Identity()
        )
        (norms): ModuleList(
          (0): LayerNorm((256,), eps=1e-05, elementwise_affine=True)
          (1): LayerNorm((256,), eps=1e-05, elementwise_affine=True)
        )
      )
    )
  )
  (decoder): DinoTransformerDecoder(
    (layers): ModuleList(
      (0): DeformableDetrTransformerDecoderLayer(
        (self_attn): MultiheadAttention(
          (attn): MultiheadAttention(
            (out_proj): _LinearWithBias(in_features=256, out_features=256, bias=True)
          )
          (proj_drop): Dropout(p=0.0, inplace=False)
          (dropout_layer): Dropout(p=0.0, inplace=False)
        )
        (cross_attn): MultiScaleDeformableAttention(
          (dropout): Dropout(p=0.0, inplace=False)
          (sampling_offsets): Linear(in_features=256, out_features=256, bias=True)
          (attention_weights): Linear(in_features=256, out_features=128, bias=True)
          (value_proj): Linear(in_features=256, out_features=256, bias=True)
          (output_proj): Linear(in_features=256, out_features=256, bias=True)
        )
        (ffn): FFN(
          (layers): Sequential(
            (0): Sequential(
              (0): Linear(in_features=256, out_features=2048, bias=True)
              (1): ReLU(inplace=True)
              (2): Dropout(p=0.0, inplace=False)
            )
            (1): Linear(in_features=2048, out_features=256, bias=True)
            (2): Dropout(p=0.0, inplace=False)
          )
          (dropout_layer): Identity()
          (gamma2): Identity()
        )
        (norms): ModuleList(
          (0): LayerNorm((256,), eps=1e-05, elementwise_affine=True)
          (1): LayerNorm((256,), eps=1e-05, elementwise_affine=True)
          (2): LayerNorm((256,), eps=1e-05, elementwise_affine=True)
        )
      )
      (1): DeformableDetrTransformerDecoderLayer(
        (self_attn): MultiheadAttention(
          (attn): MultiheadAttention(
            (out_proj): _LinearWithBias(in_features=256, out_features=256, bias=True)
          )
          (proj_drop): Dropout(p=0.0, inplace=False)
          (dropout_layer): Dropout(p=0.0, inplace=False)
        )
        (cross_attn): MultiScaleDeformableAttention(
          (dropout): Dropout(p=0.0, inplace=False)
          (sampling_offsets): Linear(in_features=256, out_features=256, bias=True)
          (attention_weights): Linear(in_features=256, out_features=128, bias=True)
          (value_proj): Linear(in_features=256, out_features=256, bias=True)
          (output_proj): Linear(in_features=256, out_features=256, bias=True)
        )
        (ffn): FFN(
          (layers): Sequential(
            (0): Sequential(
              (0): Linear(in_features=256, out_features=2048, bias=True)
              (1): ReLU(inplace=True)
              (2): Dropout(p=0.0, inplace=False)
            )
            (1): Linear(in_features=2048, out_features=256, bias=True)
            (2): Dropout(p=0.0, inplace=False)
          )
          (dropout_layer): Identity()
          (gamma2): Identity()
        )
        (norms): ModuleList(
          (0): LayerNorm((256,), eps=1e-05, elementwise_affine=True)
          (1): LayerNorm((256,), eps=1e-05, elementwise_affine=True)
          (2): LayerNorm((256,), eps=1e-05, elementwise_affine=True)
        )
      )
      (2): DeformableDetrTransformerDecoderLayer(
        (self_attn): MultiheadAttention(
          (attn): MultiheadAttention(
            (out_proj): _LinearWithBias(in_features=256, out_features=256, bias=True)
          )
          (proj_drop): Dropout(p=0.0, inplace=False)
          (dropout_layer): Dropout(p=0.0, inplace=False)
        )
        (cross_attn): MultiScaleDeformableAttention(
          (dropout): Dropout(p=0.0, inplace=False)
          (sampling_offsets): Linear(in_features=256, out_features=256, bias=True)
          (attention_weights): Linear(in_features=256, out_features=128, bias=True)
          (value_proj): Linear(in_features=256, out_features=256, bias=True)
          (output_proj): Linear(in_features=256, out_features=256, bias=True)
        )
        (ffn): FFN(
          (layers): Sequential(
            (0): Sequential(
              (0): Linear(in_features=256, out_features=2048, bias=True)
              (1): ReLU(inplace=True)
              (2): Dropout(p=0.0, inplace=False)
            )
            (1): Linear(in_features=2048, out_features=256, bias=True)
            (2): Dropout(p=0.0, inplace=False)
          )
          (dropout_layer): Identity()
          (gamma2): Identity()
        )
        (norms): ModuleList(
          (0): LayerNorm((256,), eps=1e-05, elementwise_affine=True)
          (1): LayerNorm((256,), eps=1e-05, elementwise_affine=True)
          (2): LayerNorm((256,), eps=1e-05, elementwise_affine=True)
        )
      )
      (3): DeformableDetrTransformerDecoderLayer(
        (self_attn): MultiheadAttention(
          (attn): MultiheadAttention(
            (out_proj): _LinearWithBias(in_features=256, out_features=256, bias=True)
          )
          (proj_drop): Dropout(p=0.0, inplace=False)
          (dropout_layer): Dropout(p=0.0, inplace=False)
        )
        (cross_attn): MultiScaleDeformableAttention(
          (dropout): Dropout(p=0.0, inplace=False)
          (sampling_offsets): Linear(in_features=256, out_features=256, bias=True)
          (attention_weights): Linear(in_features=256, out_features=128, bias=True)
          (value_proj): Linear(in_features=256, out_features=256, bias=True)
          (output_proj): Linear(in_features=256, out_features=256, bias=True)
        )
        (ffn): FFN(
          (layers): Sequential(
            (0): Sequential(
              (0): Linear(in_features=256, out_features=2048, bias=True)
              (1): ReLU(inplace=True)
              (2): Dropout(p=0.0, inplace=False)
            )
            (1): Linear(in_features=2048, out_features=256, bias=True)
            (2): Dropout(p=0.0, inplace=False)
          )
          (dropout_layer): Identity()
          (gamma2): Identity()
        )
        (norms): ModuleList(
          (0): LayerNorm((256,), eps=1e-05, elementwise_affine=True)
          (1): LayerNorm((256,), eps=1e-05, elementwise_affine=True)
          (2): LayerNorm((256,), eps=1e-05, elementwise_affine=True)
        )
      )
      (4): DeformableDetrTransformerDecoderLayer(
        (self_attn): MultiheadAttention(
          (attn): MultiheadAttention(
            (out_proj): _LinearWithBias(in_features=256, out_features=256, bias=True)
          )
          (proj_drop): Dropout(p=0.0, inplace=False)
          (dropout_layer): Dropout(p=0.0, inplace=False)
        )
        (cross_attn): MultiScaleDeformableAttention(
          (dropout): Dropout(p=0.0, inplace=False)
          (sampling_offsets): Linear(in_features=256, out_features=256, bias=True)
          (attention_weights): Linear(in_features=256, out_features=128, bias=True)
          (value_proj): Linear(in_features=256, out_features=256, bias=True)
          (output_proj): Linear(in_features=256, out_features=256, bias=True)
        )
        (ffn): FFN(
          (layers): Sequential(
            (0): Sequential(
              (0): Linear(in_features=256, out_features=2048, bias=True)
              (1): ReLU(inplace=True)
              (2): Dropout(p=0.0, inplace=False)
            )
            (1): Linear(in_features=2048, out_features=256, bias=True)
            (2): Dropout(p=0.0, inplace=False)
          )
          (dropout_layer): Identity()
          (gamma2): Identity()
        )
        (norms): ModuleList(
          (0): LayerNorm((256,), eps=1e-05, elementwise_affine=True)
          (1): LayerNorm((256,), eps=1e-05, elementwise_affine=True)
          (2): LayerNorm((256,), eps=1e-05, elementwise_affine=True)
        )
      )
      (5): DeformableDetrTransformerDecoderLayer(
        (self_attn): MultiheadAttention(
          (attn): MultiheadAttention(
            (out_proj): _LinearWithBias(in_features=256, out_features=256, bias=True)
          )
          (proj_drop): Dropout(p=0.0, inplace=False)
          (dropout_layer): Dropout(p=0.0, inplace=False)
        )
        (cross_attn): MultiScaleDeformableAttention(
          (dropout): Dropout(p=0.0, inplace=False)
          (sampling_offsets): Linear(in_features=256, out_features=256, bias=True)
          (attention_weights): Linear(in_features=256, out_features=128, bias=True)
          (value_proj): Linear(in_features=256, out_features=256, bias=True)
          (output_proj): Linear(in_features=256, out_features=256, bias=True)
        )
        (ffn): FFN(
          (layers): Sequential(
            (0): Sequential(
              (0): Linear(in_features=256, out_features=2048, bias=True)
              (1): ReLU(inplace=True)
              (2): Dropout(p=0.0, inplace=False)
            )
            (1): Linear(in_features=2048, out_features=256, bias=True)
            (2): Dropout(p=0.0, inplace=False)
          )
          (dropout_layer): Identity()
          (gamma2): Identity()
        )
        (norms): ModuleList(
          (0): LayerNorm((256,), eps=1e-05, elementwise_affine=True)
          (1): LayerNorm((256,), eps=1e-05, elementwise_affine=True)
          (2): LayerNorm((256,), eps=1e-05, elementwise_affine=True)
        )
      )
    )
    (ref_point_head): MLP(
      (layers): ModuleList(
        (0): Linear(in_features=512, out_features=256, bias=True)
        (1): Linear(in_features=256, out_features=256, bias=True)
      )
    )
    (norm): LayerNorm((256,), eps=1e-05, elementwise_affine=True)
  )
  (query_embedding): Embedding(900, 256)
  (memory_trans_fc): Linear(in_features=256, out_features=256, bias=True)
  (memory_trans_norm): LayerNorm((256,), eps=1e-05, elementwise_affine=True)
  (dn_query_generator): CdnQueryGenerator(
    (label_embedding): Embedding(10, 256)
  )
)
---------- [__init__](0).keyword args
@(/num_queries) 900
@(/with_box_refine) True
@(/as_two_stage) True
@(/data_preprocessor/type) DetDataPreprocessor
@(/data_preprocessor/mean/0) 123.675
@(/data_preprocessor/mean/1) 116.28
@(/data_preprocessor/mean/2) 103.53
@(/data_preprocessor/std/0) 58.395
@(/data_preprocessor/std/1) 57.12
@(/data_preprocessor/std/2) 57.375
@(/data_preprocessor/bgr_to_rgb) True
…
